hack_test/assets/firebase_ml_model_1.tflite (tflite, 5668 bytes, 6 tensors)

dense_2/bias f4 [5]
0	0xbe42cdac	-0.1902377
1	0x3deae7ec	0.11470017
2	0xbd9a9a02	-0.07548906
3	0x3e904c19	0.28183058
4	0xbe283039	-0.16424645

dense_1/bias f4 [12]
0	0xbd668e9d	-0.05628835
1	0x3e302396	0.17201075
2	0xbcfb453f	-0.030672668
3	0x3ea0e60d	0.31425515
4	0xbcbc61db	-0.02299588
5	0xbd95cb2b	-0.07314142
6	0x3e470ad0	0.19437718
7	0xbd62537a	-0.05525539
8	0xbdd95931	-0.10612715
9	0x3ededb1b	0.4352654
10	0x3e33533b	0.17512219
11	0xbc5c43c1	-0.013443888

dense/bias f4 [24]
0	0x3e9ba813	0.30401668
1	0xbd8009a1	-0.062518366
2	0x3ed9806e	0.42480797
3	0xb6c8f675	-5.989156e-06
4	0x3f00a3fa	0.5025021
5	0x3f10a82c	0.5650661
6	0x3eea074f	0.457087
7	0x3f083a30	0.5321379
8	0x3f008b06	0.5021213
9	0xb539b202	-6.9176906e-07
10	0xb4905002	-2.6880303e-07
11	0x351bcc1a	5.8039006e-07
12	0xb44315ec	-1.8168765e-07
13	0x00000000	0.0
14	0xb712bbea	-8.74603e-06
15	0x3f0204d8	0.5078864
16	0x3f1511f3	0.58230513
17	0xb733008a	-1.0669357e-05
18	0xb4e6aa48	-4.2964734e-07
19	0xb6c28534	-5.7971574e-06
20	0xbd87f770	-0.06638992
21	0xbbd7de4e	-0.00658778
22	0x3ec902b3	0.39259872
23	0xbd3d54a6	-0.046223305

sequential/dense/MatMul f4 [24, 24]
0	0xbc416f40	-0.011806309
1	0xbdc2728c	-0.09494504
2	0xbec9eee7	-0.3944008
3	0xbe82217f	-0.2541618
4	0x3e472c2a	0.19450441
5	0x3e846a9b	0.25862584
6	0xbdc01f78	-0.09381002
7	0x3c993190	0.018700391
8	0xbe55137f	-0.20808218
9	0xbdd7c120	-0.105348825
10	0x3d4f38e8	0.05059138
11	0xbe492718	-0.1964382
12	0x3e89bea6	0.26903266
13	0xbea0975b	-0.31365475
14	0xbe775aa3	-0.24155669
15	0x3e9da71e	0.30791563
16	0xbeb82a8c	-0.3596996
17	0xbc2afd0c	-0.010436308
18	0x3effb656	0.499438
19	0xbd7a91dd	-0.061174262
20	0x3e32b708	0.17452633
21	0x3ec5a20d	0.38600197
22	0x3f0cfc3f	0.55072397
23	0xbda443e6	-0.08020763
24	0xbe5313a4	-0.20612961
25	0xbe287573	-0.16451053
26	0x3d5609a0	0.052255273
27	0x3e3f610a	0.18689361
28	0xbdc97d50	-0.098383546
29	0xbd216758	-0.039405197
30	0x3ec6d009	0.38830593
31	0xbd7c941e	-0.061664693
32	0x3c77e44a	0.015130112
33	0x3ee3e0d3	0.44507465
34	0x3cde4cd6	0.027136248
35	0x3e3930f9	0.18085088
36	0x3ca17370	0.019708365
37	0xbde676b0	-0.112531066
38	0xbde04030	-0.10949743
39	0x3b58f180	0.003310293
40	0xbe925e54	-0.28587592
41	0xbea83b44	-0.32857716
42	0x3dd9d56f	0.10636412
43	0x3e31e8d8	0.17373979
44	0xbcd097e9	-0.025463061
45	0x3e0a6bbc	0.1351766
46	0x3c423bcf	0.01185508
47	0xbe0c88f2	-0.13724115
48	0xbeaa0a1d	-0.3321084
49	0x3e62ffa3	0.2216783
50	0xbebeb76d	-0.37249318
51	0xbdc7ed8e	-0.09762107
52	0x3dcb6d9a	0.09933014
53	0xbda9a9d3	-0.082843445
54	0x3ef65a4f	0.48115775
55	0x3e4c0a42	0.19925788
56	0x3ecceb13	0.40023097
57	0x3e04c22f	0.129647
58	0x3e73ac5c	0.23796219
59	0x3e456a0c	0.19278735
60	0xbdc02bf4	-0.093833834
61	0x3e99560c	0.2994846
62	0x3da07129	0.078340836
63	0xbe96214d	-0.2932228
64	0x3dce39d2	0.10069622
65	0x3d23d4ef	0.03999799
66	0xbea46e41	-0.32115367
67	0xbe81429b	-0.25246128
68	0xbe860d97	-0.26182243
69	0xbde31bdf	-0.110893
70	0x3e9e7beb	0.30953917
71	0x3e1bb161	0.15204383
72	0x3e705ff8	0.23474109
73	0x3e0ab46b	0.13545386
74	0xbd998661	-0.07496334
75	0x3d44f3d1	0.048084084
76	0xbddfb419	-0.10923023
77	0xbe7d1083	-0.2471333
78	0x3e94f401	0.2909241
79	0x3e56eeb3	0.20989494
80	0x3e5a0f9f	0.21295021
81	0x3ebeac20	0.37240696
82	0xbe9dbda3	-0.30808744
83	0x3e82c6a9	0.2554219
84	0x3ea3abf4	0.31967127
85	0x3df9f353	0.122046135
86	0x3dfaa4cb	0.12238463
87	0x3e74b75f	0.23898076
88	0xbdbdbfc9	-0.09265096
89	0x3e951904	0.29120648
90	0x3eea454e	0.45756
91	0x3e83ca2c	0.25740182
92	0x3f064c5c	0.52460265
93	0x3e559b05	0.20859917
94	0x3ef65172	0.48109013
95	0x3e87493a	0.26423055
96	0xbda3bf47	-0.07995468
97	0x3d9f9547	0.07792144
98	0x3e760559	0.24025477
99	0xbebcaf9b	-0.36852726
100	0xbd7c0c5d	-0.061535228
101	0xbe9f33df	-0.31094262
102	0x3ea01b6f	0.3127093
103	0x3f0f2ead	0.55930597
104	0x3f1308f3	0.5743553
105	0x3ed851ef	0.4225001
106	0x3e947f7b	0.2900351
107	0x3f21acd0	0.63154316
108	0xbe5d0046	-0.21582136
109	0xbe728da2	-0.23686841
110	0x3e0e8ac8	0.13920128
111	0x3de288d2	0.11061253
112	0x3e0c4e54	0.13701755
113	0xbecd38dc	-0.40082443
114	0xbe371a4e	-0.17881128
115	0xbea39899	-0.3195236
116	0xbe6a74ec	-0.22896165
117	0x3d5c7398	0.053821176
118	0xbe604709	-0.21902098
119	0xbea427c4	-0.3206159
120	0xbeb0b9a2	-0.34516627
121	0xbd525af6	-0.05135628
122	0xbe817b01	-0.25289157
123	0x3dc90849	0.098160334
124	0x3e626e18	0.2211231
125	0xbe711d53	-0.23546343
126	0xbcb1b140	-0.021690965
127	0xbe82ee30	-0.25572348
128	0xbe6e6c49	-0.23283495
129	0xbdf0c38a	-0.11756046
130	0x3e4fdeba	0.20299807
131	0xbe3d9ef8	-0.18517673
132	0xbe944981	-0.2896233
133	0x3e49093b	0.19632427
134	0xbddd093c	-0.10792777
135	0xbe8ccefa	-0.2750166
136	0x3de2f8b2	0.11082591
137	0xbe4cd98d	-0.20004864
138	0x3ed3bb02	0.41353613
139	0x3ee829f9	0.45344523
140	0xbd6d819e	-0.05798494
141	0x3efc17f5	0.49237028
142	0x3ef6bacb	0.48189387
143	0xb9a4fba8	-0.00031468016
144	0x3f006d9b	0.50167245
145	0x3eed5d6f	0.46360347
146	0x3f2ed1be	0.6828879
147	0x3dacc9d1	0.08436931
148	0x3e8dfdb2	0.27732617
149	0x3ef8e61d	0.48613063
150	0xbda602dc	-0.08106014
151	0xbe8c9df6	-0.27464265
152	0x3da20d72	0.07912721
153	0x3dd1b8f3	0.102403544
154	0xbe16ac24	-0.14714104
155	0xbe0a0c06	-0.13481149
156	0xbe471e6b	-0.19445197
157	0x3d9848e9	0.074357815
158	0xbd9cad62	-0.07650258
159	0x3e0af008	0.13568127
160	0x3c900761	0.017581644
161	0xbed3da9c	-0.41377723
162	0xbeb65b25	-0.35616413
163	0xbe17764a	-0.14791217
164	0x3cec2eb4	0.028830864
165	0x3e93f731	0.2889953
166	0xbc0634dc	-0.008191314
167	0xbe86a839	-0.2630022
168	0x3f32d6d8	0.69859076
169	0x3f183054	0.5944874
170	0x3db63657	0.08897083
171	0x3e626056	0.22107062
172	0x3edef177	0.43543598
173	0x3f25fbb6	0.64837205
174	0xbeb81a7c	-0.35957706
175	0xbea2ae1c	-0.3177346
176	0x3e0dc052	0.13842896
177	0x3e4be752	0.1991246
178	0xbe170bad	-0.14750548
179	0xbd37d538	-0.044881076
180	0x3d5dfa35	0.054193694
181	0x3e0fd8a5	0.14047487
182	0xbe4cc4f5	-0.19997008
183	0x3aa90ad0	0.0012896899
184	0x3e2675b4	0.16255838
185	0x3cdb3b36	0.026761632
186	0x3e1c6aaf	0.15275072
187	0xbeaed6cf	-0.3414826
188	0xbd9e3145	-0.07724241
189	0xbcc52f5e	-0.024070438
190	0x3cccc0d4	0.024994291
191	0xbe9d5995	-0.30732408
192	0xbe51fe42	-0.20507148
193	0xbe14b39a	-0.14521638
194	0xbe98b1b1	-0.29823068
195	0x3e74a4b6	0.23890957
196	0xbe4518bb	-0.19247715
197	0xbe6b65e4	-0.22988087
198	0x3ca8e7c0	0.02061832
199	0xbc1a30e0	-0.009411067
200	0xbe629409	-0.22126783
201	0xbea328ff	-0.31867215
202	0x3d735028	0.059402615
203	0xbe914a07	-0.2837679
204	0x3db6381a	0.08897419
205	0x3ea57a70	0.32319975
206	0x3e72fc64	0.23729092
207	0x3e993ea0	0.29930592
208	0x3d83efdf	0.06442236
209	0x3e825827	0.2545788
210	0xbe6fb6d6	-0.2340959
211	0xbd6c2e50	-0.057661355
212	0xbe2b46cf	-0.1672623
213	0xbdb03bac	-0.086051315
214	0xbd206d20	-0.03916657
215	0xbd7420c0	-0.059601545
216	0x3f24bc4a	0.64349806
217	0x3f45bfcc	0.77245784
218	0x3ec33d63	0.38132772
219	0x3f31c87a	0.6944653
220	0x3ecd67a7	0.40118143
221	0x3efcc91f	0.49372193
222	0x3e487a3f	0.19577883
223	0x3f01bcc9	0.5067869
224	0x3ec737f4	0.38909876
225	0x3efa2b82	0.4886132
226	0xbdcaf9b1	-0.09910906
227	0x3ddc28f2	0.10749997
228	0xbe6ad112	-0.22931316
229	0xbeae2f4a	-0.34020454
230	0x3de89652	0.11356796
231	0xbda7cb26	-0.08193044
232	0x3ea088df	0.31354424
233	0x3e18a234	0.14905626
234	0x3ede62da	0.43434793
235	0x3e8a3197	0.2699096
236	0x3ee87e88	0.45409036
237	0x3ec3c56c	0.38236558
238	0x3e0c78f7	0.1371802
239	0x3ef10764	0.4707595
240	0x3b272c19	0.0025508462
241	0x3e4ae844	0.19815165
242	0x3d25cfaf	0.040481266
243	0xbd91acfe	-0.07113074
244	0xbeb1fb74	-0.34762156
245	0x3df84620	0.1212275
246	0xbe7185c5	-0.23586185
247	0x3dda86c0	0.10670233
248	0xbe9e42d5	-0.30910364
249	0x3d02f680	0.031973362
250	0x3e7dbb96	0.2477859
251	0x3dff546c	0.12467274
252	0x3f12a3c2	0.57281125
253	0xbd4c95c9	-0.049947534
254	0x3e8bd453	0.27310428
255	0x3edcf935	0.4315888

sequential/dense_1/MatMul f4 [12, 24]
0	0xbdb8e40c	-0.090278715
1	0x3e01e468	0.12684786
2	0xbe819afe	-0.25313562
3	0xbe845aa8	-0.25850415
4	0xbe74fce0	-0.23924589
5	0xbe6a81db	-0.22901098
6	0xbca962d2	-0.020677004
7	0xbf0bc166	-0.5459198
8	0x3ea9fa6c	0.3319887
9	0xbea4e48f	-0.32205626
10	0xbccfa092	-0.02534512
11	0x3e6e9b06	0.23301324
12	0xbec82eae	-0.39098114
13	0xbc15cd40	-0.009143174
14	0xbd8d6e84	-0.06905845
15	0x3dc2be76	0.09508984
16	0x3e239488	0.15974629
17	0xbe06e12e	-0.13171837
18	0xbe8fe125	-0.2810146
19	0x3e5afb32	0.21384886
20	0xbebbd61d	-0.36686793
21	0x3df67ae8	0.12035161
22	0x3e06e3d0	0.13172841
23	0x3e368829	0.17825378
24	0xbe935711	-0.28777364
25	0x3e4b069c	0.1982674
26	0x3edaaf83	0.4271203
27	0xbbb8c367	-0.005638528
28	0x3f21d035	0.63208324
29	0x3e6c7ab8	0.23093688
30	0x3dc8d956	0.098070785
31	0x3f6ad2f9	0.9172817
32	0x3f62c7a5	0.88585883
33	0xbe7e49f8	-0.24832904
34	0x3f1b4f25	0.6066764
35	0x3ec85ca1	0.3913317
36	0x3f26c247	0.65140194
37	0xbe0f2b28	-0.13981307
38	0xbe7b49d9	-0.2453989
39	0xbe916d4e	-0.28403705
40	0x3eed1e89	0.4631236
41	0xbf212ab3	-0.6295578
42	0xbf4a0bc9	-0.7892423
43	0xbdb7282f	-0.08943211
44	0x3e9d9db8	0.30784392
45	0xbf0b3452	-0.5437671
46	0xbc5a1c36	-0.01331239
47	0xbe84b085	-0.25915924
48	0xbe4bed8b	-0.19914834
49	0xbebd2d19	-0.3694847
50	0x3de7b0eb	0.11313041
51	0x3d9ac20d	0.075565435
52	0xbe67a6d8	-0.2262224
53	0x3c1cadb2	0.009562897
54	0x3e897627	0.26847956
55	0xbe118786	-0.14211854
56	0xbe8d0f9b	-0.2755097
57	0xbe15226b	-0.1456391
58	0xbe72271c	-0.23647732
59	0xbed00978	-0.40632224
60	0xbe4af4f9	-0.19820012
61	0x3ed0ac76	0.40756577
62	0xbea31576	-0.3185231
63	0x3e54265e	0.20717761
64	0x3e351e8b	0.17687432
65	0x3d450e01	0.04810906
66	0x3d97e274	0.074162394
67	0xbe84ec8b	-0.25961718
68	0xbe362006	-0.17785653
69	0x3ea8aa3f	0.32942387
70	0x3d1eb4fd	0.038746823
71	0x3ebd8e90	0.3702283
72	0x3e8bcadf	0.27303216
73	0xbec10c5f	-0.3770475
74	0x3e43d99a	0.19125977
75	0xbeab3298	-0.33437037
76	0xbc9d9d40	-0.019240022
77	0xbe7dd4c4	-0.24788195
78	0x3f1e47d2	0.6182834
79	0x3f2a6d5d	0.66573125
80	0x3f1dcbd5	0.6163915
81	0x3e487800	0.19577026
82	0xbd55f1bc	-0.05223249
83	0x3de95895	0.11393849
84	0x3db92b12	0.09041418
85	0x3e942f1c	0.28942192
86	0x3f22b162	0.63551915
87	0xbd813517	-0.06308954
88	0x3eeafffb	0.45898423
89	0xbe70c654	-0.23513156
90	0xbdef0c32	-0.11672248
91	0x3df2cf2a	0.1185592
92	0xbea7b267	-0.32753298
93	0xbecc210a	-0.39868957
94	0x3ea0d3df	0.31411645
95	0xbebc7693	-0.36809215
96	0x3f19967a	0.59995234
97	0xbd9c0fa4	-0.07620171
98	0xbf067d96	-0.5253538
99	0x3ef357a6	0.47527808
100	0x3e2fa602	0.1715317
101	0x3f029abe	0.5101737
102	0xbdd4a9b3	-0.1038393
103	0xbf122afa	-0.5709683
104	0x3dca3e3c	0.098751515
105	0x3ea81cb8	0.3283441
106	0xbe1c967e	-0.15291783
107	0x3eb59501	0.35465243
108	0xbd809618	-0.06278628
109	0xbe0527f8	-0.13003528
110	0x3e5e9f69	0.21740498
111	0x3ef0e960	0.4705305
112	0xbe901f03	-0.2814866
113	0xbe3e76e8	-0.18600047
114	0x3ea3d48c	0.31998098
115	0x3e0f15fe	0.13973233
116	0xbe079618	-0.1324085
117	0xbe4d52e0	-0.20051146
118	0xbe801b0c	-0.25020635
119	0x3e5d8456	0.21632513
120	0x3ecb7a85	0.39741912
121	0xbcfa24bf	-0.0305351
122	0xbd59051a	-0.05298338
123	0x3e8a26fc	0.26982868
124	0xbe46777a	-0.19381514
125	0x3d3a841b	0.04553614
126	0xbe17e160	-0.14832067
127	0x3e25a2e6	0.16175422
128	0x3ede8553	0.43461093
129	0xbdfff35c	-0.12497589
130	0x3e8e3b56	0.27779645
131	0x3f18af4e	0.59642494
132	0x3f05667d	0.5210951
133	0x3e1ba8d0	0.15201116
134	0xbe0fab46	-0.1403018
135	0xbe0bbc33	-0.13646011
136	0xbe7293db	-0.23689215
137	0x3e0c6023	0.13708548
138	0x3ea66fe5	0.32507244
139	0x3de600dd	0.112306334
140	0x3e96c4e7	0.294471
141	0xbeb05a6a	-0.3444398
142	0x3eb06cae	0.34457916
143	0x3db00138	0.085939825
144	0x3ef933e0	0.4867239
145	0x3e81d41f	0.25357148
146	0x3e65ce67	0.22442017
147	0xbe2ba79f	-0.16763161
148	0x3dc84bd4	0.09780088
149	0x3e91f8f3	0.28510246
150	0x3f21f9be	0.632717
151	0x3e84f2ca	0.25966483
152	0x3f46a986	0.7760242
153	0xbee4533e	-0.4459476
154	0xbecb55d9	-0.39713934
155	0xbe69b0b6	-0.22821316
156	0xbd5a2bdb	-0.05326448
157	0xbd752268	-0.059847265
158	0x3e9be9a2	0.30451685
159	0x3ec6fd56	0.38865155
160	0x3ea721f3	0.3264309
161	0x3e5717b5	0.21005137
162	0xbee33730	-0.44378042
163	0xbee5940e	-0.4483952
164	0x3e0236c0	0.12716198
165	0x3d04dde9	0.032438193
166	0x3d7c0412	0.06152732
167	0xbda40af0	-0.08009899
168	0x3f06e241	0.52688986
169	0xbd54b390	-0.051929057
170	0xbd93774d	-0.07200489
171	0x3ebc5fa9	0.36791733
172	0x3e4ca7ea	0.19985929
173	0xbb367764	-0.0027842158
174	0xbebb266b	-0.36552748
175	0xbe7ba945	-0.2457629
176	0x3eaa0942	0.33210188
177	0x3eb2fe61	0.349597
178	0x3ed8df53	0.42357883
179	0x3eee7247	0.46571562
180	0x3e4bccd2	0.19902351
181	0x3e5392f0	0.20661521
182	0x3eaf3a51	0.3422418
183	0x3e85a534	0.26102602
184	0xbecb4e3d	-0.3970813
185	0xbe5ff4c9	-0.21870722
186	0x3e1ca5d1	0.15297629
187	0x3ed0b111	0.4076009
188	0xbd582576	-0.0527701
189	0x3dc4ee1d	0.09615729
190	0x3e1383a4	0.14405686
191	0xbddde844	-0.10835317
192	0xbe037bc4	-0.12840182
193	0xbcaf7506	-0.021418106
194	0xbee7a884	-0.45245755
195	0x3eda715d	0.42664614
196	0xbeb8b089	-0.36072186
197	0xbb93bbe2	-0.0045084814
198	0x3edb3a6c	0.4281801
199	0x3f026b39	0.5094486
200	0xbdac62fa	-0.08417316
201	0x3f4adce8	0.79243326
202	0xbe45b48b	-0.19307153
203	0x3db28338	0.08716434
204	0x3d8f187a	0.069870904
205	0x3cae5db0	0.021284908
206	0x3f2b3f9d	0.6689394
207	0x3f04b1d9	0.51833874
208	0xbd8841e4	-0.06653193
209	0x3f39c984	0.72573113
210	0x3f3132dd	0.69218236
211	0x3df2c722	0.11854388
212	0xbde1f798	-0.11033553
213	0x3ee9fab1	0.45699075
214	0xbea6d13e	-0.32581514
215	0xbdceeb0b	-0.10103425
216	0x3f13a2c1	0.5767022
217	0x3e99a502	0.30008703
218	0x3f68e64b	0.909764
219	0xbe9fefab	-0.3123754
220	0x3f5acf6b	0.85472745
221	0x3f4cdfc6	0.8002895
222	0x3ecbe10c	0.39820135
223	0x3ef03227	0.46913263
224	0x3f5ceb8b	0.8629691
225	0xbf156c56	-0.5836843
226	0xbe9b42eb	-0.30324492
227	0xbed6a7a5	-0.41924778
228	0xbf1e67ba	-0.61877024
229	0x3e3ceb90	0.18449235
230	0xbf4780c1	-0.7793084
231	0x3f76f2da	0.9646431
232	0x3f782b7e	0.96941364
233	0xbea85abb	-0.32881722
234	0x3e474681	0.19460489
235	0xbef46619	-0.47734144
236	0xbe922166	-0.28541106
237	0xbe9a0e4c	-0.30089033
238	0x3f289b89	0.6586233
239	0xbeb402d0	-0.35158396
240	0xbecab2a0	-0.39589405
241	0x3ea08c81	0.31357196
242	0x3f31021a	0.6914383
243	0x3e68cdb5	0.22734721
244	0x3ee4e8a6	0.44708747
245	0x3e2c4ebc	0.1682691
246	0xbebad2e9	-0.36489037
247	0xbf12a5ca	-0.57284224
248	0xbf0268f7	-0.50941414
249	0x3e59c7e5	0.2126766
250	0xbeb00239	-0.34376696
251	0xbe63ea5b	-0.22257368
252	0xbe2c8131	-0.16846158
253	0x3ea73450	0.326571
254	0xbe75f070	-0.24017501
255	0xbe224844	-0.1584788

sequential/dense_2/MatMul f4 [5, 12]
0	0xbd0ffb94	-0.035152033
1	0xbe3ed262	-0.18634942
2	0x3ed71f0c	0.42015874
3	0x3edd82cf	0.43263862
4	0xbf1d12cd	-0.6135681
5	0xbf36935b	-0.71318597
6	0x3e92396d	0.28559437
7	0xbe2a74ec	-0.16646165
8	0x3f583a6a	0.8446413
9	0xbf828552	-1.0196936
10	0xbec4de39	-0.38450792
11	0xbee89520	-0.45426273
12	0xbf298e90	-0.6623316
13	0xbf850c67	-1.039441
14	0xbe95e177	-0.2927358
15	0xbef68230	-0.481462
16	0xbf218f24	-0.6310904
17	0xbf17e8f0	-0.5933981
18	0xbf8ce244	-1.1006551
19	0xbc04aa0e	-0.008097185
20	0x3f0cc7fb	0.54992646
21	0xbe8208ac	-0.2539724
22	0x3eda184d	0.42596665
23	0x3e94bcb1	0.2905021
24	0xbe42da74	-0.19028646
25	0x3ec490c5	0.383917
26	0x3effb6a5	0.49944034
27	0x3d93f6a7	0.072247796
28	0xbf2f2065	-0.68408805
29	0x3f1f6ecf	0.62278455
30	0xbf39c282	-0.7256242
31	0x3f42c104	0.7607577
32	0xbecda40c	-0.4016422
33	0xbf92d40b	-1.147096
34	0xbefbd134	-0.49183047
35	0x3e20740b	0.15669267
36	0xbd727761	-0.05919588
37	0x3f07d04b	0.53052205
38	0x3e4b207d	0.19836612
39	0x3d2020e8	0.03909388
40	0xbe664d5b	-0.22490446
41	0xbf3c9b09	-0.73674065
42	0x3f89b8a5	1.0759474
43	0xbf5304b9	-0.8242908
44	0xbeee11ea	-0.46498042
45	0x3f524e36	0.8215059
46	0xbf473948	-0.7782178
47	0xbf02f06e	-0.51148117
48	0xbe89fc93	-0.2695051
49	0xbf273238	-0.65311
50	0x3e4d51d9	0.20050754
51	0xbf6db0d4	-0.92847943
52	0x3f203255	0.625768
53	0x3e578cbd	0.21049781
54	0xbf19d4a9	-0.6009012
55	0x3f1540f5	0.5830224
56	0x3f0711a9	0.5276132
57	0xbe61b65f	-0.22042225
58	0xbf3f2c0b	-0.7467658
59	0xbed2cc68	-0.41171575
